Applications/uKOS_Appls_Downloadable/l_MLPs/cluster_TFL/_Training/mlp_model.tflite (tflite, 4124 bytes, 6 tensors)

arith.constant f4 [5]
000000 d2 32 b9 be ae bf ca be 05 12 ac be fb fa 95 be
       -0.36171585 -0.39599365 -0.33607498 -0.29293045
000010 0d e1 59 be
       -0.21277256

arith.constant1 f4 [24]
000000 9d 0d 69 be 84 e1 af bd 5c ec 11 bf a6 bd d0 3e
       -0.227591 -0.085879356 -0.5700128 0.4076969
000010 7f e1 74 bc 09 4c f2 be ce 7f b9 3e 8c d5 10 3f
       -0.014946341 -0.47323635 0.3623032 0.56575847
000020 0c 76 9b be 36 5b e1 3d a0 63 12 3f 95 41 da be
       -0.303635 0.11003725 0.57183266 -0.4262816
000030 ae 0d 03 3e 71 92 3f 3f a2 94 0d bf dc 03 a4 3e
       0.12798187 0.74832827 -0.5530492 0.32034194
000040 89 c9 01 bf f3 1a 0a bf 6e 60 0b 3f 86 4e 92 3d
       -0.50698143 -0.5394737 0.54444015 0.071438834
000050 62 bc 00 3f bd f1 10 3e fb bd fb 3e f5 fb 0f bf
       0.5028745 0.14154716 0.4916838 -0.5624383

arith.constant2 f4 [5, 24]
000000 41 66 06 be 53 a9 98 be 79 ec 61 3f 90 7a 0a bf
       -0.13124944 -0.29816684 0.88251454 -0.54093266
000010 6c f0 39 bf a6 bb 7c 3f da aa be be 01 47 18 bf
       -0.7263248 0.9872383 -0.37239724 -0.59483343
000020 16 4e 99 3f ce be 90 bf 7e d4 c7 bf 19 84 b5 3e
       1.1976955 -1.1308229 -1.5611722 0.35452345
000030 5b f5 06 3f f1 89 50 3f 0c dd 5a bf 3d d4 ab be
       0.5271813 0.8146048 -0.8549354 -0.33560362
000040 a0 28 3a 3f bc 3f 80 3e 10 91 d2 be c7 4d 56 3e
       0.7271824 0.25048625 -0.411263 0.20928107
000050 85 9e 28 bf 66 bf 4a bf ff f2 02 3e 86 61 7b 3f
       -0.6586688 -0.791983 0.12788008 0.98195684
000060 f1 1c 3b 3e aa 9b bf 3f 6e 9d a7 3e 8f c7 2b bf
       0.18272759 1.496938 0.32737297 -0.6710138
000070 f2 2a 00 be 5e 19 c4 3f dc d1 8f bf 41 59 d2 be
       -0.12516382 1.5320241 -1.1235919 -0.4108372
000080 0c ab 9d 3f d6 90 ab be 77 06 62 3e 40 0b 22 3f
       1.2317824 -0.3350894 0.22072779 0.63298416
000090 91 4b 17 bf 9a b6 77 bf 56 9d 38 bf 27 32 a2 bd
       -0.5909968 -0.96763 -0.72115076 -0.07919722
0000a0 51 64 85 3e 0f bf 11 3f 5c bf 7f bf e6 a3 2f bf
       0.26053098 0.5693216 -0.99901366 -0.68609464
0000b0 24 52 06 be bc 97 c6 bc f8 7e 33 bf a9 bb 9e 3e
       -0.13117272 -0.024242274 -0.70115614 0.31002548
0000c0 75 2d 4b 3e b9 db a6 bf 23 89 0e 3f 34 06 16 bf
       0.19841559 -1.3035804 0.55678004 -0.58603215
0000d0 49 55 c5 be bf 2e a0 bc 00 d4 82 bd 98 71 6c 3c
       -0.3854163 -0.01955354 -0.06388092 0.01443138
0000e0 b2 be 59 3d 47 6e d4 3e aa 2e b6 bf c6 ae 6d 3f
       0.053160377 0.41490385 -1.4232991 0.9284481
0000f0 4c 41 88 be 1c 4a 25 3e bf b0 e8 3f 03 80 0a bf
       -0.26612318 0.16141552 1.8178939 -0.5410158
000100 4a 58 3a 3f 22 52 4f 3f 5d 8d 10 bf bf c1 20 3f
       0.7279097 0.809847 -0.56465703 0.62795633
000110 20 5b de bd a5 bb 3b bf 16 4f 30 bf 8e 30 0a 3f
       -0.108572245 -0.733332 -0.68870676 0.5398034
000120 49 c3 20 3f cf d3 a5 3c d4 b3 6b 3e 75 dc 86 bd
       0.6279798 0.0202426 0.23017818 -0.065850176
000130 ec 41 3c 3f 23 ce 37 bf ff 1f 15 bf 2d 03 7c bf
       0.7353809 -0.71798915 -0.5825195 -0.98442346
000140 4e 9e cf 3e a7 4a 51 3e 0e 1a 25 3f 87 89 7a 3e
       0.40550464 0.20438634 0.6449288 0.24466525
000150 e4 98 ff be 25 85 e3 bf c6 eb e9 3f 65 46 4c bf
       -0.49921334 -1.7775007 1.8275077 -0.79794914
000160 68 45 ca be 59 0b b7 3e f7 33 3b bf d5 66 9f be
       -0.39506078 0.35750845 -0.7312617 -0.31133142
000170 fc 7f 2d bf ee f6 48 3f 9a be 0a bf 7f 36 57 3f
       -0.67773414 0.78501785 -0.54197085 0.8406753
000180 b9 08 3b bf fd fb 60 3e 3b b7 01 3f ea ab 0b bf
       -0.73060185 0.21971126 0.5067021 -0.54559195
000190 4e 2b 3e 3e bc e4 ab bf f3 69 97 3f b6 d1 96 be
       0.18571207 -1.3429179 1.1829208 -0.29456872
0001a0 2f bb 83 bf b8 4e 8c 3f 98 f9 ec 3f 5a 0d b2 3e
       -1.0291499 1.0961523 1.851367 0.3477581
0001b0 96 01 02 be e1 c5 f8 3f 57 b8 d6 bf 3f f0 1e 3f
       -0.12695917 1.9435388 -1.6775006 0.62085336
0001c0 46 49 53 bf 59 85 15 3e 4c 8c f0 3d 27 9e bf be
       -0.8253368 0.1460165 0.117455095 -0.37425348
0001d0 00 29 f4 be f7 d4 79 3e 92 81 4b be 62 50 a8 3e
       -0.4768753 0.24397646 -0.19873646 0.32873827

arith.constant3 f4 [24, 12]
000000 8c 08 a0 3f b6 fc 97 be 87 ee dc be 6e b2 ad 3d
       1.2502608 -0.2968499 -0.43150732 0.084812984
000010 a5 7d b1 3f 02 26 d2 be bd 74 8c 3e b0 15 e5 bf
       1.3866469 -0.41044623 0.27432814 -1.7897243
000020 83 81 5a bf 1d 51 cd 3b ea 43 95 be 1e bf 21 bd
       -0.8535387 0.006265773 -0.29153377 -0.039488904
000030 de 32 8c 3d dc cd 8f 3e db 72 81 bf 7b a5 13 40
       0.0684564 0.28086746 -1.0113176 2.3069751
000040 43 e7 8e be 30 a6 87 3f 0e 76 eb bf af 3f 33 bf
       -0.27910814 1.0597591 -1.8395402 -0.7001905
000050 f1 aa 3d bf 4a 42 ef 3e 2d 0d 5c bf f0 1f 0b be
       -0.7408896 0.46730262 -0.85957605 -0.13586402
000060 ed 6c ea 3e 57 ff f6 3e 2f f5 07 3f ca 4c b2 3e
       0.4578623 0.48241684 0.53108495 0.3482421
000070 d3 2e 97 bd 28 f5 c2 be d0 1d 9d 3e 5b a6 b4 be
       -0.07381978 -0.38077664 0.30686808 -0.3528317
000080 a1 19 24 bf 9c 88 63 be ff e5 a3 be 94 3b 3a bf
       -0.64101607 -0.22220081 -0.3201141 -0.7274716
000090 bb fd 06 bf d5 f6 28 bf 74 2c 55 3d ba 6f eb 3b
       -0.5273091 -0.66001636 0.052044347 0.0071849497
0000a0 31 89 b5 be 75 4e b7 3e c9 a0 29 be 9e 6c fa 3e
       -0.3545623 0.35802045 -0.16565241 0.48910993
0000b0 0f 6d 1e 3f b7 84 f5 3e 2a 59 16 3e 87 fb 1e 3f
       0.6188516 0.47952816 0.14682451 0.6210255
0000c0 66 2f b8 3d 98 d3 bc be 58 04 a0 3e e4 b2 93 bc
       0.089934155 -0.36880183 0.31253314 -0.018029638
0000d0 88 1c 13 3f 52 3f 54 3e b6 57 91 be 7a 2f 98 3e
       0.5746541 0.2072728 -0.2838723 0.29723722
0000e0 d8 1e 23 3f 43 68 02 bf 28 df b2 3d 6c e7 c8 3e
       0.6371894 -0.5094034 0.0873397 0.3923906
0000f0 4a 55 0a bf dc 29 08 40 5c 28 5b 3f a8 ca ff 3d
       -0.5403639 2.127555 0.8560846 0.124898255
000100 9c 95 fa bf 20 11 89 bd fe cc c0 bd d6 51 bd 3f
       -1.9576907 -0.066927195 -0.09414099 1.4790599
000110 5b 37 b1 3f 16 20 3b c0 dc 6f 1f 3f ac ee 03 bf
       1.3845018 -2.9238334 0.6228006 -0.5153606
000120 24 c3 02 3c 3e 7a 01 bd 54 6b 6b be 74 c2 eb bf
       0.007981095 -0.03161072 -0.22990161 -1.8418717
000130 34 68 e0 3d 93 f1 3a be 2a 69 0c 40 e0 d4 fe 3d
       0.10957375 -0.18256216 2.1939187 0.124429464
000140 7b e1 32 bd 0a 26 8d bd 2c d3 94 3f 00 61 5c 3e
       -0.043672066 -0.06892021 1.1626945 0.21521378
000150 17 77 38 bf 5f 0a bf be e8 7b 86 bd 97 ca 04 3e
       -0.72056717 -0.373126 -0.06566602 0.12967907
000160 e5 6a 06 be b7 e3 5b bd 58 7e 88 3d 63 c0 e2 3a
       -0.13126715 -0.053683963 0.06664723 0.0017299767
000170 c3 29 e1 3d 1c ed af 3e 01 fe 97 3e ea ac 10 3f
       0.109942935 0.34360588 0.29685977 0.56513846
000180 7f 34 40 3d a0 77 bc 3f 19 7f 12 3f e0 21 19 be
       0.046925064 1.4724007 0.57225186 -0.14954329
000190 1c 51 c7 bf 87 f8 a9 3d af b5 ec 3d 13 ab c2 3f
       -1.5571628 0.08299356 0.11558091 1.5208458
0001a0 8b 35 9c 3f 01 91 38 c0 b0 cc 1e be a2 15 9a be
       1.220384 -2.8838503 -0.1550777 -0.3009463
0001b0 56 d9 a8 3d 2d c2 2c bf c4 a9 d9 be 9a d5 a2 3d
       0.082445785 -0.6748379 -0.42512333 0.079508975
0001c0 6e 31 0e 40 b2 5a 19 3e ed b9 aa bd c1 6a a8 bf
       2.221767 0.14976004 -0.08336244 -1.3157579
0001d0 35 7d 73 bf 1a 2d 2e 40 84 13 60 bd 53 95 55 3f
       -0.95112926 2.7215028 -0.05470611 0.83430976
0001e0 bd 8b 2d be 47 3d ae 3d a8 82 ac bf 42 71 38 40
       -0.16947837 0.085077815 -1.3477373 2.8819127
0001f0 1c 25 25 bf 14 65 f2 3f 74 53 0b c0 05 a3 9d 3d
       -0.6450975 1.8937097 -2.1769686 0.07697109
000200 37 f1 45 bf e5 6e 25 be 04 9b 3f bf 7e 21 50 3f
       -0.7732119 -0.16155584 -0.7484591 0.81301105
000210 eb 6d 6f 3e cb c3 16 3f 40 ae 86 3d e3 e2 84 be
       0.23381774 0.58892506 0.06576204 -0.2595435
000220 2d 1b fd be 9b a1 87 ba 29 71 b9 be e1 e3 cf 3e
       -0.49434796 -0.0010347845 -0.36219147 0.40603545
000230 e6 b3 c6 be 1a ce 83 be 30 df 1d bf 56 5d fc be
       -0.38809127 -0.2574318 -0.6166868 -0.4928996
000240 18 8e d8 bd 2b a8 8e be 7a 8b 07 bf 9c ae 91 be
       -0.10573977 -0.27862677 -0.529472 -0.2845353
000250 e7 e6 d2 be ff 4a 98 3e 4c d5 9d 3e 8a 1e 88 bd
       -0.4119179 0.29744717 0.30826795 -0.0664645
000260 8e 02 27 bf 4d 66 69 3d 5f 68 e3 bd 48 26 df 3e
       -0.65238273 0.056982327 -0.111038916 0.43583894
000270 52 1f 17 3d 02 fe 22 bf 9a d1 16 be 80 b3 42 c0
       0.036895104 -0.63668835 -0.14728394 -3.0422058
000280 f2 32 d0 3e ec e9 db be 6f b6 73 40 55 f7 f7 3d
       0.40663868 -0.42951906 3.8080099 0.12107722
000290 3c a6 03 3f b7 df 84 bd 24 22 e1 3f 13 a1 f9 3e
       0.5142553 -0.06487983 1.7588544 0.48755702
0002a0 40 a4 d4 3f da 9c ad be 6e 21 33 bf a9 91 98 bd
       1.6612625 -0.3390873 -0.69972885 -0.074496575
0002b0 c3 75 cd 3f 55 70 8b bf dc 04 5d 3d db 1b 38 c0
       1.6051563 -1.0893656 0.053959712 -2.8767002
0002c0 d7 aa e8 bf c6 4c 06 3f 29 e3 b3 be de ec e8 be
       -1.8177136 0.52460897 -0.35134247 -0.45493215
0002d0 96 36 3b bf 67 7d 91 3c 92 47 e8 be 8f c2 17 3e
       -0.73130167 0.017759992 -0.45367104 0.14820312
0002e0 7b 6c 94 bf 31 88 a9 bd 3a a2 49 3d 0f b3 ec 3f
       -1.1595606 -0.082779296 0.049226977 1.8492144
0002f0 f2 37 56 3f ef 28 50 bf 2e e0 12 3e 53 ef 83 3e
       0.83679116 -0.8131246 0.1434333 0.25768527
000300 24 fd 03 3f c5 bd 01 be 67 cc 76 3e 57 11 ff bf
       0.51558137 -0.12670048 0.24101411 -1.9927167
000310 c7 39 83 bd 0d a3 ba bf 58 3f a4 3f ff f4 3b 3e
       -0.064075045 -1.4581009 1.2831831 0.18355177
000320 2c d8 c8 3d 35 aa 53 be 27 e5 86 3e 48 8d 3a 3b
       0.098068565 -0.20670398 0.26346704 0.0028465558
000330 f5 37 e1 3d 37 df 65 3e 6f f5 da 3e a9 37 cd 3e
       0.10997001 0.22448431 0.42765376 0.40081528
000340 f7 cb 4a bb db 6c b9 be 94 e5 1c 3d e6 fb 32 3e
       -0.0030944326 -0.36215863 0.03830488 0.17478904
000350 25 fa 9e bd 40 5c 00 be 1b 02 11 bf d1 d8 4c bf
       -0.07762555 -0.1253519 -0.5664384 -0.80018336
000360 42 f0 3c bf 9f 07 b7 be 2e 14 33 bf 00 82 cd bd
       -0.73804104 -0.35748002 -0.69952667 -0.10034561
000370 66 24 0e 3e 43 67 e5 3e 54 4d c4 3e 46 ce 96 3e
       0.13881072 0.44805345 0.38340247 0.2945425
000380 2a 13 f0 3c 56 fd 18 3f 38 25 49 3f bd ac f2 3e
       0.029306013 0.5976156 0.78572416 0.47397414
000390 98 eb 1c 3f 86 d2 ee bd 18 1a 70 be ea 25 18 be
       0.6129699 -0.11661248 -0.23447454 -0.14858213
0003a0 22 5a f5 3d bc cc 56 3e 9c 28 10 be f1 6f c9 bf
       0.11980082 0.20976537 -0.14077991 -1.5737287
0003b0 e7 15 86 bf 71 97 dc 3e be bd a0 be 76 e2 80 3e
       -1.0475434 0.4308429 -0.31394762 0.25172776
0003c0 91 e9 9d be 7e 63 ca be dc 65 26 bf 3d 6b 88 3d
       -0.3084226 -0.39529032 -0.64999175 0.06661079
0003d0 8f d3 83 be 10 35 0b 3f 61 3b 78 3e 8e e4 f0 bd
       -0.25747344 0.5437784 0.24241401 -0.11762343
0003e0 d9 9a af bd c5 44 97 bd 28 88 6b 3e 52 78 b8 3e
       -0.08574457 -0.073861636 0.23001158 0.36029297
0003f0 3e 86 e9 be b9 ca 56 3e c2 20 e1 be ec 12 e3 3f
       -0.4561023 0.2097577 -0.43970305 1.774015

sequential_1/dense_1/MatMul f4 [12, 2]
000000 8b 3b a3 bd a2 78 98 bf 25 07 a6 3e c6 cd a6 3f
       -0.07970341 -1.1911814 0.32427326 1.3031547
000010 06 fc 2c bf e7 7b 09 3f 5c 91 55 40 91 e1 9d bb
       -0.6757206 0.53704685 3.336997 -0.0048181494
000020 fa 2e fd be 99 33 4b c0 82 0a a0 3f b6 ba 82 3e
       -0.49449903 -3.1750243 1.2503207 0.25533074
000030 cb 9e 41 c0 63 23 f6 bd 8e f3 d9 bd e7 aa 54 40
       -3.025317 -0.12018468 -0.106421575 3.322931
000040 f2 1b 12 bf 7b af 47 40 31 d0 03 bc 42 0d 18 c0
       -0.5707389 3.1200855 -0.008045242 -2.3758092
000050 4f e9 bd bf c3 ed bd 3e d8 dd 86 bd bd 01 40 be
       -1.4836825 0.3709546 -0.06585282 -0.18750663

sequential_1/dense_1/BiasAdd f4 [12]
000000 de 33 f1 be fe 54 ce be e7 cc c0 be 8f 82 0a bd
       -0.47109884 -0.4029922 -0.37656328 -0.033815917
000010 18 b7 3f 3d c7 69 e7 3e 29 bf 20 3e f0 9e 2c 3e
       0.04680547 0.4519789 0.15697922 0.16857505
000020 a2 c6 e0 3d a0 c8 97 3e c3 c6 9e 3e 30 91 74 3f
       0.10975386 0.29645252 0.31011018 0.9553404
