Applications/uKOS_Appls_Downloadable/l_MLPs/class_TFL/_Training/mlp_model.tflite (tflite, 18924 bytes, 6 tensors)

arith.constant f4 [2]
0	0xbe6ef3ea	-0.23335233
1	0x3e679ec1	0.22619154

arith.constant1 f4 [73]
0	0x3e40fbc4	0.18846041
1	0x3d700a4f	0.05860358
2	0xbe85951c	-0.26090324
3	0xbe86c678	-0.26323295
4	0xbe6a5917	-0.22885548
5	0xbd041f87	-0.03225663
6	0x3db8551f	0.090006106
7	0xbe53beb3	-0.20678215
8	0xbe0fa2a2	-0.14026883
9	0x3e58762b	0.21138828
10	0xbe558727	-0.20852338
11	0x3ea19661	0.31560043
12	0xbe96e878	-0.29474235
13	0xbe3e9a4d	-0.18613549
14	0xbdf47d4f	-0.11937963
15	0xbe762f6d	-0.24041529
16	0xbe94065c	-0.28911102
17	0x3e563252	0.20917633
18	0x3e5dd6a7	0.21663915
19	0xbeac1669	-0.33610848
20	0xbd58388a	-0.052788295
21	0x3e678a21	0.22611286
22	0xbe73e69c	-0.23818439
23	0xbe3ae45c	-0.18251175
24	0x3e85a239	0.2610033
25	0xbe4e8aaa	-0.20170084
26	0xbe49dd28	-0.1971327
27	0x3e74d8bf	0.23910807
28	0xbdce333f	-0.10068368
29	0x3e959706	0.29216784
30	0x3bfc2d98	0.007695865
31	0x3d292ffd	0.04130553
32	0xbe2662e4	-0.16248661
33	0x3e76f01f	0.24115036
34	0xbde89b3d	-0.11357734
35	0xbe81be58	-0.25340533
36	0x3db35ebd	0.08758304
37	0x3de58e9f	0.112088434
38	0xbe513a00	-0.20432281
39	0x3c25e360	0.010125011
40	0xbc7e3716	-0.015516063
41	0x3e308507	0.17238246
42	0xbe12afcb	-0.14324872
43	0xbe63f005	-0.22259529
44	0xbe4862d1	-0.19568945
45	0xbdc138ff	-0.09434699
46	0x3e9068a1	0.28204826
47	0x3e96a9d8	0.29426455
48	0xbe4eb186	-0.20184907
49	0x3e6aa583	0.229147
50	0x3e4bc866	0.19900665
51	0x3e200327	0.15626203
52	0x3e8897c7	0.26678297
53	0x3dbbc98b	0.09169301
54	0x3e17a3b6	0.14808545
55	0x3e83011a	0.25586778
56	0xbe26f6c7	-0.16305076
57	0x3d145878	0.036217183
58	0x3c0188c9	0.007906147
59	0x3d9d7025	0.076874055
60	0x3e6d6f69	0.23187031
61	0xbe001c6d	-0.12510844
62	0xbe4743be	-0.19459435
63	0x3e507269	0.20356144
64	0x3e566739	0.20937814
65	0xbe9f179e	-0.31072706
66	0xbd166412	-0.03671653
67	0xbe9448e4	-0.2896186
68	0xbe11b365	-0.1422859
69	0x3e2b7db3	0.16747169
70	0xbe5e382f	-0.2170112
71	0x3e061ad7	0.13096176
72	0x3dfb9e64	0.1228607

arith.constant2 f4 [2, 73]
0	0xbec48cb1	-0.3838859
1	0xbcddc98b	-0.027073642
2	0x3ec728b5	0.38898245
3	0x3e0c845f	0.1372237
4	0x3d72ed84	0.059308544
5	0x3e1bb8a2	0.1520715
6	0x3f0fe7ce	0.5621308
7	0x3eba7b48	0.3642218
8	0xbf570513	-0.8399212
9	0xbe6575be	-0.22408196
10	0x3ebd5564	0.3697921
11	0xbe8ea763	-0.2786208
12	0x3e4fec70	0.20305037
13	0x3eec644f	0.4617028
14	0xbf66b73e	-0.90123355
15	0x3e34155f	0.17586277
16	0x3e08ab90	0.13346696
17	0xbe3c47bd	-0.18386741
18	0xbe8a49c2	-0.27009398
19	0x3ed18434	0.40921175
20	0xbf06ae9b	-0.52610177
21	0xbd9dbf85	-0.07702545
22	0x3e44b12c	0.1920821
23	0x3e011b92	0.12608173
24	0xbe6edd05	-0.233265
25	0x3ebeff70	0.37304258
26	0x3d8342c3	0.06409218
27	0xbede3936	-0.43403023
28	0xbf033eee	-0.512679
29	0xbed0634e	-0.40700763
30	0x3ecef627	0.40422174
31	0x3e3159ef	0.17319463
32	0xbf7d5c55	-0.9896901
33	0xbe0512d4	-0.12995464
34	0xbf864eec	-1.0492835
35	0x3d1ceeb2	0.038313575
36	0x3f345bb2	0.70452416
37	0x3f3e296a	0.7428194
38	0x3d61db38	0.055140704
39	0xbe5279d7	-0.2055429
40	0xbe242a16	-0.1603168
41	0xbe94b617	-0.29045174
42	0xbf2f7475	-0.68537074
43	0x3e3ef0cd	0.18646546
44	0xbf145aa0	-0.5795078
45	0xbf2be37a	-0.67143977
46	0xbe7d68bc	-0.24746984
47	0xbeef5ff4	-0.46752894
48	0x3ec95862	0.39325243
49	0xbece44a5	-0.40286747
50	0xbeb450aa	-0.35217792
51	0xbe8481d2	-0.25880295
52	0xbe3d8988	-0.18509495
53	0x3e5be8df	0.21475552
54	0x3f51a9f7	0.8189997
55	0xbe5143be	-0.20435998
56	0xbf12d481	-0.57355505
57	0x3f140a4f	0.5782823
58	0x3ef4c2c0	0.47804832
59	0x3f197607	0.5994572
60	0xbe5d5844	-0.21615702
61	0xbe993650	-0.2992425
62	0x3e705e2a	0.2347342
63	0xbe7ffec7	-0.24999534
64	0xbd9304fe	-0.071786866
65	0x3e734907	0.23758326
66	0xbf0e7f35	-0.5566285
67	0x3ead5f63	0.33861837
68	0xbf849639	-1.0358344
69	0xbef100ac	-0.47070825
70	0x3e57d55a	0.21077481
71	0x3f5c4891	0.8604823
72	0x3f6dc953	0.9288532
73	0x3ecaa854	0.3958155
74	0xbcf3158b	-0.029673358
75	0xbe54ea34	-0.20792466
76	0xbe9b5ac8	-0.30342698
77	0xbe731bac	-0.23741025
78	0xbecfbbce	-0.4057297
79	0xbf141985	-0.5785144
80	0x3d6ed68a	0.05831007
81	0x3f47b894	0.7801602
82	0x3ec22cad	0.3792471
83	0xbea9ffa3	-0.33202848
84	0x3e862d4f	0.26206443
85	0xbe0b29cb	-0.13590162
86	0xbe94d4c7	-0.29068586
87	0x3f50ac68	0.8151307
88	0xbe21060c	-0.15724963
89	0xbed1ee2f	-0.41002032
90	0x3ea63f93	0.32470378
91	0x3f014225	0.50491554
92	0x3d6b39b0	0.057428062
93	0x3e72ba8a	0.23703972
94	0x3edfbd41	0.43699077
95	0xbdb70029	-0.089355774
96	0xbd92a121	-0.07159639
97	0x3e8d079f	0.27544877
98	0xbe9aa915	-0.30207124
99	0xbeb3aef9	-0.3509443
100	0x3d5832cd	0.052782822
101	0x3f137e82	0.5761491
102	0x3c89ac20	0.016805708
103	0xbeb7a318	-0.35866618
104	0xbec170f8	-0.377815
105	0x3f2f8ce9	0.68574387
106	0x3ea95ed8	0.33080173
107	0x3f55f75c	0.83580565
108	0xbee0865e	-0.43852514
109	0xbebc5e4e	-0.367907
110	0xbf789058	-0.9709525
111	0xbe40999a	-0.18808594
112	0xbe506f15	-0.20354874
113	0x3ef74c3e	0.48300356
114	0x3ecc726f	0.39931056
115	0x3f49371b	0.7859971
116	0xbec5b23b	-0.38612542
117	0x3f1a7f63	0.60350627
118	0x3f1d7fa1	0.6152287
119	0x3e05a75e	0.13052127
120	0x3d8549f7	0.06508248
121	0xbd1a9d48	-0.03774765
122	0x3ea5ff0d	0.3242115
123	0x3eaf1ea3	0.3420306
124	0xbdc1ed6a	-0.09469111
125	0x3e89e882	0.26935202
126	0x3e880a31	0.26570275
127	0xbf6de4f6	-0.9292749
128	0x3e978df3	0.29600486
129	0x3f55d2e8	0.8352494
130	0xbf0d42f1	-0.5518027
131	0xbf2074f2	-0.62678444
132	0xbee9ff52	-0.45702606
133	0x3eb9621e	0.3620767
134	0x3efc61ea	0.49293453
135	0xbedb2f23	-0.428094
136	0x3eeee48d	0.46658745
137	0x3e5450c4	0.20733935
138	0xbe6a4cf5	-0.2288092
139	0x3eaeb6df	0.34123895
140	0xbdcb7133	-0.099337004
141	0x3f83956a	1.0279973
142	0x3ed1d4b4	0.40982592
143	0xbea2fe38	-0.3183458
144	0xbf668361	-0.9004422
145	0xbf70a337	-0.93999046

arith.constant3 f4 [73, 52]
0	0xbcd6910e	-0.026192214
1	0xbc7b67c7	-0.015344567
2	0xbd9a9034	-0.07547036
3	0x3e1ac633	0.1511467
4	0x3eba4d1b	0.36386952
5	0x3c4c0ad1	0.012453751
6	0x3d84d91c	0.06486723
7	0x3ce47a61	0.027890386
8	0xbc1a6b19	-0.009424948
9	0x3da70d58	0.08156842
10	0x3da688ce	0.08131562
11	0xbde85139	-0.11343617
12	0xbe359c7a	-0.17735472
13	0x3eb5562d	0.3541731
14	0xbe6769ed	-0.22599001
15	0x3d748e93	0.059706282
16	0xbda7ba83	-0.08189871
17	0xbeae36d5	-0.3402621
18	0xbe37bedc	-0.17943901
19	0xbe3c343b	-0.183793
20	0xbd6c0f45	-0.05763175
21	0x3e1c61b5	0.15271647
22	0x3e6a05b6	0.22853741
23	0xbe10e953	-0.14151506
24	0xbe370765	-0.17873915
25	0x3ddc25cb	0.10749396
26	0xbe19bd2f	-0.15013574
27	0xbe70ac09	-0.23503126
28	0x3df7ddc3	0.121028446
29	0x3d9bd468	0.07608873
30	0xbe4c792a	-0.19968095
31	0x3ce47b5c	0.027890854
32	0x3d57ca44	0.05268313
33	0x3cdc95f2	0.026926968
34	0xbe47bf96	-0.19506678
35	0xbe359f56	-0.17736563
36	0xbc0f1c77	-0.008734814
37	0x3cba8cde	0.022772249
38	0x3e79084c	0.24319571
39	0x3ba02a9a	0.004887891
40	0xbbb8a6fc	-0.0056351405
41	0x3caa7a0c	0.02081015
42	0xbe0ea83b	-0.13931362
43	0x3ee8eaab	0.45491537
44	0xbcc5b16c	-0.024132453
45	0xbe51ab52	-0.2047551
46	0x3bb2b741	0.0054539745
47	0xbd87eaf3	-0.0663661
48	0x3e39d36e	0.1814706
49	0x3cc5fef6	0.024169426
50	0x3e2aea2a	0.16690889
51	0xbd261c70	-0.040554464
52	0x3dddef0a	0.10836609
53	0xbe3adbd5	-0.18247922
54	0x3e1229cf	0.14273761
55	0xbe6493be	-0.22321984
56	0x3dd4a160	0.10382342
57	0x3e3d1f06	0.18468866
58	0x3c599d27	0.013282097
59	0xbd4ab2e8	-0.049487025
60	0xbe1c669e	-0.1527352
61	0x3e3aa2a4	0.18226105
62	0x3de72f7f	0.11288356
63	0x3e0ff678	0.14058864
64	0xbd34262c	-0.043981716
65	0x3e89bade	0.2690038
66	0xbcf4a70a	-0.029864807
67	0xbe6e7d37	-0.23289953
68	0x3d15294a	0.03641633
69	0x3bb70bc3	0.005586119
70	0x3c310a20	0.010805637
71	0xbe1117eb	-0.1416928
72	0xbd135dcc	-0.035978124
73	0xbe0d51ce	-0.13800737
74	0x3d48f34e	0.04906016
75	0x3e22ac08	0.15885937
76	0xbe036b21	-0.12833835
77	0xbd3cf06e	-0.04612773
78	0x3c709a70	0.014685258
79	0x3d16ba0d	0.036798526
80	0x398f7f81	0.00027370083
81	0x3d67bba9	0.05657545
82	0xbe4b1aa0	-0.19834375
83	0x3e498623	0.19680075
84	0x3e4aba87	0.19797717
85	0x3e4959a2	0.19663098
86	0x3e6ad36f	0.22932218
87	0x3d970e2f	0.07375752
88	0x3e894fab	0.26818594
89	0x3e33379c	0.17501682
90	0xbe2734b6	-0.16328701
91	0xbd416d13	-0.047223162
92	0x3d621252	0.055193253
93	0x3cd77da9	0.026305037
94	0x3dad1a60	0.08452296
95	0x3dae54a3	0.08512237
96	0x3d39709f	0.04527342
97	0x3ce93fb0	0.028472751
98	0x3dea2fb5	0.11434881
99	0x3dea25a0	0.11432958
100	0xbe39d348	-0.18147004
101	0x3c5d533a	0.013508612
102	0x3ebbc8c8	0.3667662
103	0x3e094847	0.13406478
104	0x3e533ee8	0.20629466
105	0xbe5defa3	-0.21673445
106	0xbc3c0940	-0.011476815
107	0x3e0f9cc1	0.1402464
108	0xbef00504	-0.46878827
109	0xbdd0784c	-0.10179195
110	0xbd8422a1	-0.064519174
111	0xbdbc01e5	-0.09180049
112	0xbe18f1a1	-0.14935924
113	0x3ded3cfc	0.115838975
114	0x3e6250a3	0.22101073
115	0xbe91b4b4	-0.28458178
116	0x3cc89f88	0.024490133
117	0xbe8c6bc8	-0.2742598
118	0x3cdda82f	0.027057735
119	0x3d291952	0.041283913
120	0xbdf9076e	-0.1215962
121	0x3ee577a6	0.44817847
122	0x3e84d8b5	0.25946584
123	0xbd8ea0b7	-0.06964248
124	0x3dc2c236	0.09509699
125	0xbe0f951b	-0.14021723
126	0xbe340de5	-0.17583425
127	0xbc0863af	-0.008324548
128	0x3e106f4e	0.1410496
129	0x3e2929ff	0.16519926
130	0x3dbd1c64	0.09233931
131	0x3c874e4e	0.01651683
132	0xbf019e36	-0.50632036
133	0x3da96508	0.08271223
134	0x3f0827c0	0.53185654
135	0xbd422d9c	-0.047406778
136	0xbdd76595	-0.10517422
137	0xbe871dbc	-0.26389873
138	0x3e9144ad	0.28372708
139	0x3e8a4ffa	0.27014142
140	0x3db79e09	0.0896569
141	0xbd31a4bc	-0.043369994
142	0xbe66c8b8	-0.22537506
143	0xbe145239	-0.1448449
144	0x3e65a6d3	0.2242692
145	0xbe84f09c	-0.2596482
146	0x3e333c7b	0.1750354
147	0xbe76a018	-0.24084508
148	0xbe6f6eac	-0.23382062
149	0x3b6a9030	0.003579151
150	0x3e04749b	0.12935106
151	0x3e8c3128	0.27381253
152	0xbd9b9b9d	-0.0759804
153	0x3e2a7ccf	0.16649173
154	0xbe0d6f2f	-0.13811944
155	0xbe4285ac	-0.18996304
156	0xbdb3bcd3	-0.0877625
157	0xbe1e28a6	-0.15445194
158	0xbe43e6dc	-0.19131035
159	0xbe21cf33	-0.15801696
160	0xbef47c51	-0.47751096
161	0xbcadcc5d	-0.021215612
162	0x3d757044	0.059921518
163	0x3d34f9b7	0.04418346
164	0xbe0c5ac8	-0.13706505
165	0x3d1efaa9	0.038813267
166	0x3e15906b	0.14605872
167	0xbaaac1ed	-0.0013027765
168	0x3d8a7cc8	0.067620814
169	0xbeeecb96	-0.466397
170	0xbd678d3a	-0.05653117
171	0xbbf816d0	-0.007571079
172	0xbe33d092	-0.17560032
173	0x3e8ac0f7	0.27100345
174	0xbd9aa5b8	-0.075511396
175	0x3e735806	0.23764047
176	0x3e27a26b	0.16370551
177	0xbe8c3ab7	-0.27388546
178	0xbe543933	-0.20724945
179	0x3e63d619	0.2224964
180	0xbc87d08c	-0.016578935
181	0x3da88a57	0.08229511
182	0xbc390dd2	-0.011294799
183	0x3e86e77c	0.26348484
184	0xbef8e4ac	-0.48611963
185	0xbe490a13	-0.1963275
186	0x3ea3c5d6	0.31986874
187	0xbbb8bba3	-0.0056376024
188	0xbccb0d17	-0.024786515
189	0xbdf93ed1	-0.121701844
190	0x3d394c7d	0.04523896
191	0x3df39454	0.11893526
192	0x3d014802	0.031562813
193	0xbe61a39c	-0.22035068
194	0xbe90b5bd	-0.28263655
195	0x3e0e83e7	0.13917504
196	0xbc3b8f5b	-0.011447753
197	0x3daf0a34	0.08546868
198	0xbb9b936f	-0.0047478
199	0xbe87fadc	-0.26558578
200	0xbdc3ba3c	-0.09557006
201	0xbd848120	-0.06469941
202	0x3dddef33	0.10836639
203	0x3df146cd	0.11781082
204	0xbe67ed84	-0.22649199
205	0xbe0097be	-0.12557885
206	0x3cebc271	0.02877924
207	0xbdce48c7	-0.10072475
208	0x3e3f913c	0.18707746
209	0xbeb26e7f	-0.34849927
210	0x3da61d42	0.08111049
211	0x3e17a691	0.14809634
212	0xbeb08409	-0.34475735
213	0xbd4c46ea	-0.049872316
214	0x3e0ec454	0.1394208
215	0xbe5928d6	-0.21206984
216	0xbe5c0633	-0.2148674
217	0x3dba54c2	0.090981975
218	0x3cc08e22	0.023505274
219	0xbe2a6770	-0.16641021
220	0xbcace2dd	-0.02110427
221	0xbebd1081	-0.36926654
222	0xbe52632e	-0.20545647
223	0xbe64df0b	-0.22350709
224	0x3dac3a0e	0.084095106
225	0x3e87da33	0.2653366
226	0xbe16f35f	-0.14741276
227	0xbca1bf0a	-0.019744415
228	0xbbc4b46b	-0.006002953
229	0xbe150926	-0.14554271
230	0xbe4def2f	-0.20110773
231	0x3e249ba4	0.16074997
232	0x3e503e8d	0.20336361
233	0x3e4b8707	0.19875728
234	0xbdad5c4e	-0.08464871
235	0x3d882d70	0.066492915
236	0xbe8eac27	-0.27865717
237	0x3d1b2e0b	0.037885707
238	0x3ea0befc	0.3139571
239	0xbe58e790	-0.21182084
240	0xbe26b5db	-0.1628031
241	0xbe062d2d	-0.1310317
242	0x3e310cb6	0.17290005
243	0x3da547d3	0.0807034
244	0x3df2f77d	0.11863611
245	0xbdfac412	-0.12244429
246	0xbe92b4b5	-0.28653494
247	0x3d8a6ab0	0.0675863
248	0x3e36645f	0.17811726
249	0xbe806f17	-0.25084755
250	0xbc4763de	-0.012169806
251	0xbf0217a9	-0.5081735
252	0xbdfce910	-0.12349141
253	0xbdbca6cb	-0.09211501
254	0x3e915121	0.2838221
255	0xbd29f78e	-0.041495852

sequential_1/dense_1/MatMul f4 [52, 2]
0	0x3db3c4d7	0.087777786
1	0x3f2cf0e5	0.67555076
2	0xbed13f0f	-0.40868422
3	0xbe734337	-0.23756109
4	0x3f14d600	0.5813904
5	0xbd4e12da	-0.050310947
6	0xbd051aa6	-0.032496117
7	0xbf55ec27	-0.83563465
8	0xbf08c08c	-0.53418803
9	0xbdc7b597	-0.097514324
10	0xbe193a0f	-0.14963554
11	0x3f037274	0.51346517
12	0x3d507f8e	0.050902896
13	0xbf3e985c	-0.7445123
14	0xbeeb27b9	-0.45928743
15	0xbf38b8d9	-0.72157055
16	0xbd243ffd	-0.040100086
17	0x3f35dd71	0.7104102
18	0x3ecc7766	0.39934844
19	0xbebe13b3	-0.37124404
20	0x3e676b8c	0.2259962
21	0x3f213f22	0.6298696
22	0xbf0a12cc	-0.5393493
23	0x3edaf170	0.42762327
24	0x3ee9bf4b	0.45653757
25	0x3ed93c82	0.42428976
26	0xbda51d7b	-0.080622636
27	0x3eb485c3	0.35258302
28	0x3f83c341	1.0293962
29	0xbf098fa3	-0.537348
30	0x3f069a52	0.52579224
31	0xbf464ba5	-0.77459174
32	0x3ec0c125	0.37647358
33	0xbed5edc9	-0.41782978
34	0x3e3d7d45	0.18504818
35	0xbe28880f	-0.16458152
36	0x3e8bd3f2	0.2731014
37	0x3f0e8851	0.5567675
38	0x3ef1fe6e	0.47264427
39	0xbee5086f	-0.44732997
40	0x3e1911d4	0.14948207
41	0xbf212581	-0.6294785
42	0x3f24b01a	0.6433121
43	0x3de6ffb9	0.11279244
44	0x3f4a9445	0.7913249
45	0xbd27707e	-0.040878765
46	0xbf4d301f	-0.8015155
47	0xbdbb0081	-0.091309555
48	0x3ee1dcc9	0.44113758
49	0x3f15700f	0.5837411
50	0xbf0f602a	-0.5600611
51	0x3e8e121a	0.27748185
52	0xbf4b7721	-0.7947865
53	0x3e089ac2	0.13340285
54	0x3f0730fc	0.5280912
55	0xbe16911d	-0.14703794
56	0x3ef0cc4a	0.4703086
57	0xbe69c1da	-0.22827855
58	0xbf678538	-0.9043765
59	0xbe1f4b4b	-0.15556066
60	0x3e4f5d9b	0.20250551
61	0x3e49e8c8	0.19717705
62	0x3ead6387	0.33864996
63	0xbee84593	-0.4536558
64	0xba6365b4	-0.0008674518
65	0x3f15f6da	0.5857979
66	0x3f090f0c	0.53538585
67	0x3e6a94ae	0.2290828
68	0x3e1593f8	0.14607227
69	0xbf3429bb	-0.70376176
70	0x3ef61733	0.48064575
71	0x3e639faa	0.22228876
72	0x3bdeadc7	0.006795618
73	0xbf81df73	-1.0146316
74	0xbee31951	-0.44355252
75	0x3d02f3ae	0.031970672
76	0x3ee5117b	0.447399
77	0xbf0df3dd	-0.5545023
78	0x3ec84e83	0.391224
79	0x3e8881cd	0.2666153
80	0xbf5b9c48	-0.8578534
81	0xbe43ee1f	-0.19133805
82	0xbeede00e	-0.46460003
83	0xbec52236	-0.38502663
84	0xbee037a9	-0.43792465
85	0xbead8989	-0.33893993
86	0x3d678710	0.05652529
87	0x3e06cabe	0.13163278
88	0xbe21cdaf	-0.15801118
89	0xbf1009f0	-0.56265163
90	0xbf5fa139	-0.8735538
91	0xbe8eb2e4	-0.27870858
92	0x3ef39e7f	0.4758186
93	0xbee003e7	-0.43752977
94	0xbe730957	-0.23734032
95	0xbf4f21a8	-0.8091073
96	0xbeb089b5	-0.34480062
97	0xbe415a03	-0.18881993
98	0x3ec4f1f5	0.3846585
99	0xbef29e2d	-0.47386304
100	0x3f8f5a16	1.1199367
101	0xbd80e659	-0.06293935
102	0xbe991d83	-0.29905328
103	0xbed5d33a	-0.41762716

sequential_1/dense_1/BiasAdd f4 [52]
0	0xbdf63747	-0.12022262
1	0x3eab9617	0.33512947
2	0x3e109fd8	0.14123476
3	0xbe9d5705	-0.30730453
4	0x3f52a9e2	0.8229047
5	0x3d19a335	0.037509162
6	0xbecaaeac	-0.3958639
7	0x3ef50800	0.47857666
8	0xbdbd36aa	-0.09238942
9	0x3db5adb6	0.08871023
10	0xbea453a9	-0.32095078
11	0x3ebaa752	0.3645578
12	0x3e64772a	0.22311082
13	0x3f7e6443	0.9937174
14	0x3f3255a5	0.69661933
15	0x3f0c8a51	0.54898554
16	0x3c1a121f	0.0094037345
17	0xbf4c6b39	-0.7985111
18	0xbea726d6	-0.32646817
19	0xbe83575a	-0.2565258
20	0xbe39f72b	-0.18160693
21	0x3eb24179	0.34815577
22	0x3f2a9aff	0.66642755
23	0xbecf0962	-0.40436846
24	0xbed6263b	-0.41826043
25	0xbe81bf1d	-0.2534112
26	0x3e795294	0.24347907
27	0xbe2a8f31	-0.16656186
28	0x3f022a7f	0.50846094
29	0x3f3d122f	0.7385587
30	0xbf2bef7f	-0.6716232
31	0x3e08ea2b	0.13370578
32	0xbaf19274	-0.0018430487
33	0x3e3cde24	0.18444115
34	0xbeb83a94	-0.35982192
35	0xbe89409b	-0.26807103
36	0xbf1bea11	-0.6090403
37	0x3d781651	0.060568158
38	0x3ee6f73c	0.451105
39	0xbdd8861c	-0.10572454
40	0xbefdcec4	-0.49571812
41	0x3e803a81	0.25044635
42	0xbde877e5	-0.11350993
43	0x3f5f53b5	0.872371
44	0x3ddf2cb8	0.10897201
45	0x3ed98ecf	0.42491767
46	0xbeb152be	-0.3463344
47	0xbf169f18	-0.5883651
48	0x3e5a14f5	0.21297057
49	0xbe4e7f3b	-0.20165722
50	0xbf261800	-0.6488037
51	0x3dd252ca	0.10269697
